model/model.pth (torch, 8595 bytes, 4 tensors)

linear1.weight f4 [256, 4]
0	0x3edfa8a8	0.43683362
1	0xbdfaa084	-0.12237647
2	0xbe7b3e64	-0.24535519
3	0xbe949cca	-0.2902587
4	0x3e21d940	0.1580553
5	0x3dd81e30	0.10552633
6	0xbe40d458	-0.18831003
7	0xbda2ae38	-0.07943386
8	0xbd0e3990	-0.034722865
9	0x3e8f7a78	0.28023124
10	0x3ef017a4	0.46893036
11	0x3efa301e	0.48864836
12	0xbe0cc4e8	-0.13746989
13	0x3ee9b02d	0.45642224
14	0xbea35316	-0.31899327
15	0xbe5fefa2	-0.21868756
16	0xbef87385	-0.48525634
17	0x3e26f05c	0.16302627
18	0x3c698897	0.014253757
19	0x3eaf876f	0.34283015
20	0x3e1ec296	0.15503916
21	0xbebc67e4	-0.36798012
22	0xbed4fad3	-0.41597614
23	0xbe52ae6c	-0.20574349
24	0x3ead9564	0.33903039
25	0x3d75b100	0.059983253
26	0xbe9eb186	-0.30994815
27	0xbeeba0c0	-0.4602108
28	0xbefad48d	-0.48990288
29	0xbed45e07	-0.41477987
30	0xbee34246	-0.443865
31	0xbee86b61	-0.45394424
32	0xbe777462	-0.2416549
33	0xbebbc8ff	-0.36676785
34	0xbe9ab2a4	-0.30214417
35	0xbee92324	-0.45534623
36	0x3eafa2f6	0.34304017
37	0x3ef2d688	0.474293
38	0xbe8afcea	-0.27146083
39	0x3e4734d4	0.19453746
40	0x3eea8813	0.4580694
41	0xbe8cdc62	-0.2751189
42	0xbed7f41b	-0.42178425
43	0xbe0ffd8b	-0.14061563
44	0x3c68f1d2	0.014217811
45	0xbe37a526	-0.17934093
46	0xbee68b4b	-0.45028147
47	0x3dfd4ebf	0.12368535
48	0xbf021aba	-0.5082203
49	0x3eacb67c	0.33732975
50	0xbec29786	-0.38006228
51	0x3d189ed2	0.037260838
52	0x3e87ea5c	0.2654599
53	0x3ecdd5be	0.40202135
54	0x3e5f93a0	0.21833658
55	0x3dd93680	0.10606098
56	0x3eddb3a8	0.4330113
57	0xbe2d53c0	-0.1692648
58	0x3d99dfa2	0.07513358
59	0xbea9e071	-0.33179048
60	0x3e843e7a	0.25828916
61	0xbea74692	-0.32671028
62	0xbec9d3b5	-0.39419332
63	0x3dc96f06	0.09835629
64	0xbe62b00b	-0.22137468
65	0x3edc3f3c	0.43016994
66	0xbedb6c2d	-0.4285597
67	0x3e5df071	0.21673752
68	0x3e3664d8	0.17811906
69	0x3e9586ee	0.29204506
70	0x3e7e8368	0.24854815
71	0xbeb7af20	-0.35875797
72	0xbe50a90b	-0.20376985
73	0xbee1aa2d	-0.44075146
74	0xbec780cc	-0.38965452
75	0xbdade08b	-0.08490094
76	0xbe3d7f1a	-0.18505517
77	0x3e0c2c16	0.13688692
78	0xbe774785	-0.24148376
79	0x3e7f9eb2	0.24962881
80	0xbe7b80e6	-0.2456089
81	0x3cfddbb3	0.03098855
82	0x3d7a8d55	0.06116994
83	0x3ec6150d	0.38687935
84	0xbece3a2d	-0.4027876
85	0xbeab9ea4	-0.3351947
86	0xbde8fe5f	-0.113766424
87	0x3ee69866	0.45038146
88	0xbe7b28dd	-0.24527307
89	0xbe861706	-0.2618944
90	0x3e6d9af3	0.2320364
91	0x3ee90ef3	0.45519218
92	0xbec04e3b	-0.37559685
93	0xbeb3f0be	-0.3514461
94	0xbe48fdd5	-0.19628079
95	0x3d7bf587	0.06151345
96	0x3ebe6fc6	0.3719465
97	0xbf00be55	-0.50290424
98	0x3d503dd7	0.050840225
99	0x3e8d1773	0.27556953
100	0x3ea4afcb	0.3216537
101	0xbe4d87a2	-0.20071271
102	0xbdcf043a	-0.10108228
103	0xbc2db0fc	-0.010601278
104	0xbec1599c	-0.3776368
105	0xbd7ae123	-0.061249863
106	0x3e9088ae	0.28229278
107	0xbed953b9	-0.42446688
108	0xbe905aeb	-0.28194365
109	0xbd505477	-0.050861802
110	0xbea3cb18	-0.31990886
111	0x3ec7adf0	0.3899989
112	0xbe596e5e	-0.21233508
113	0xbf07a4a7	-0.52985615
114	0xbefbdbf3	-0.49191245
115	0xbb32cceb	-0.0027282785
116	0x3c9da470	0.019243449
117	0x3ed60688	0.41801858
118	0xbed6f3f4	-0.41982996
119	0x3ef34819	0.47515944
120	0x3e71f24f	0.2362759
121	0xbe3f4478	-0.18678463
122	0xbdb4bdab	-0.08825239
123	0xbd1c490d	-0.038155604
124	0x3c7dd131	0.01549177
125	0xbd1f896a	-0.038949408
126	0xbe8e4f00	-0.27794647
127	0xbec38b5d	-0.38192263
128	0x3e659450	0.22419858
129	0x3e5a18fc	0.21298593
130	0xbe535294	-0.2063697
131	0xbe9aab6e	-0.30208915
132	0xbea4c575	-0.32181898
133	0xbd8d1a7e	-0.068898186
134	0x3eb299bf	0.34882924
135	0xbe99440c	-0.29934728
136	0x3cfd490b	0.030918619
137	0x3e887a4b	0.26655802
138	0xbe02071b	-0.12698023
139	0x3eb2803f	0.3486347
140	0x3de6c86b	0.112686954
141	0xbefa419a	-0.48878175
142	0x3db35047	0.08755546
143	0xbead407d	-0.33838263
144	0xbe0bba44	-0.13645273
145	0x3eb751dc	0.3580464
146	0x3e8499d2	0.25898606
147	0xbcf50e00	-0.029913902
148	0xbdc4463a	-0.09583707
149	0x3cec4cb3	0.028845167
150	0x3ec0e269	0.37672737
151	0x3c900324	0.017579623
152	0x3ebc9ada	0.36836892
153	0x3e17a06c	0.1480729
154	0xbea67ca6	-0.32516974
155	0xbee754be	-0.4518184
156	0xbdcef094	-0.101044804
157	0x3ca0290d	0.019550825
158	0xbe30f504	-0.17280966
159	0x3e2e5823	0.17025809
160	0xbefedb1b	-0.4977654
161	0x3e9ee1fd	0.3103179
162	0x3eb884d6	0.36038846
163	0x3dce14e1	0.10062576
164	0x3e6bca48	0.23026383
165	0x3e883f72	0.26610905
166	0xbd900968	-0.07033044
167	0x3dd1bc80	0.10241032
168	0x3e8396fa	0.25701123
169	0xbec12d3b	-0.3772982
170	0x3d63079b	0.055427175
171	0x3dafc93d	0.08583305
172	0x3f0359ff	0.513092
173	0xbdda32be	-0.106542096
174	0xbe5d439c	-0.21607822
175	0x3ec69e23	0.38792524
176	0xbdbd16a0	-0.09232831
177	0x3eea8024	0.4580089
178	0x3ed0543c	0.40689266
179	0xbeb48294	-0.35255873
180	0xbe7155d2	-0.23567894
181	0x3dfb15d1	0.122600205
182	0xbdbfdab4	-0.09367886
183	0xbeda7fd2	-0.42675644
184	0xbe3ea500	-0.1861763
185	0x3ddf1ec0	0.10894537
186	0xbe82c352	-0.25539643
187	0x3e8a824b	0.2705253
188	0x3d09865b	0.033575397
189	0x3ebeef25	0.37291828
190	0xbedec5a6	-0.4351017
191	0x3ce1fdb1	0.02758679
192	0xbd22cca6	-0.03974595
193	0x3edb5063	0.42834768
194	0xbe96ebb7	-0.2947671
195	0xbda8f646	-0.08250098
196	0x3da7cfbc	0.08193919
197	0xbe9f7d67	-0.31150362
198	0x3e83b4df	0.2572393
199	0x3ee954f3	0.45572624
200	0x3dfc9bc3	0.12334397
201	0x3e91cc97	0.28476402
202	0xbecce1b3	-0.40015945
203	0x3e9987ab	0.2998632
204	0xbd84e8ea	-0.06489737
205	0x3e3ff386	0.1874524
206	0xbe1151f1	-0.14191414
207	0x3ebe81bf	0.37208363
208	0x3c479d38	0.01218348
209	0x3ec4ceca	0.38439018
210	0xbed6ac1d	-0.41928187
211	0xbdb155ad	-0.086589195
212	0x3df6c056	0.12048404
213	0xbe7b107a	-0.24518004
214	0xbd090fb7	-0.033462252
215	0xbebc17c1	-0.36736873
216	0x3ec486fa	0.3838423
217	0x3ef4d246	0.47816676
218	0x3e068340	0.13136005
219	0xbeb0d6a0	-0.34538746
220	0xbef4a492	-0.47781807
221	0x3ef55e5b	0.4792355
222	0xbe9731d1	-0.29530194
223	0x3eb71de4	0.35764992
224	0x3e7f2f44	0.24920374
225	0x3e3e8328	0.1860472
226	0xbdbaed30	-0.09127271
227	0x3e8f081c	0.27935874
228	0x3e9a3356	0.3011729
229	0x3e3d3b70	0.18479705
230	0xbe4d51ac	-0.20050687
231	0x3c32bbc0	0.010909021
232	0xbb00d64a	-0.0019658976
233	0x3d5fa5dc	0.054601535
234	0x3e9dd6dd	0.3082799
235	0xbee9de6d	-0.4567751
236	0x3d5250c0	0.05134654
237	0x3e93be06	0.28855914
238	0x3ee4c920	0.44684696
239	0x3e368bc8	0.1782676
240	0x3ee93a69	0.45552376
241	0xbdec5508	-0.11539656
242	0x3e2328be	0.1593351
243	0x3e2fe33c	0.17176527
244	0x3de25132	0.11050643
245	0xbeb34a34	-0.3501755
246	0x3da5509c	0.08072016
247	0xbe6be94b	-0.23038213
248	0x3ea1a99c	0.31574714
249	0x3e6e8a48	0.23294938
250	0xbe8280ae	-0.254888
251	0x3dfa3a38	0.122181356
252	0xbe682979	-0.2267207
253	0xbe850ea5	-0.25987735
254	0xbee1af98	-0.4407928
255	0xbe451593	-0.19246511

linear1.bias f4 [256]
0	0xbeaf862c	-0.34282053
1	0xbdac1730	-0.0840286
2	0xbde71b70	-0.1128453
3	0x3e86650f	0.26248977
4	0x3e80ee65	0.2518188
5	0xbe93ef86	-0.2889368
6	0xbea9b78c	-0.33147848
7	0xbe5729a6	-0.21011981
8	0x3e55f6c8	0.20894921
9	0xbeda9484	-0.42691433
10	0xbd93f551	-0.07224525
11	0x3e19d0b3	0.15021019
12	0x3ea694a3	0.32535276
13	0xbed6d5b8	-0.4195993
14	0xbd64c7c7	-0.055854585
15	0x3ee92b7a	0.45540982
16	0xbde08ec8	-0.10964733
17	0x3e36d6c4	0.17855364
18	0x3e7e5539	0.24837197
19	0xbeb7917f	-0.35853192
20	0xbe1a7ff7	-0.15087877
21	0x3e066bf8	0.13127124
22	0x3e429527	0.1900221
23	0xbeec48af	-0.46149203
24	0x3ef297e5	0.4738151
25	0xbe539954	-0.20663959
26	0xbe682d09	-0.2267343
27	0x3e3a4b6e	0.18192837
28	0x3e9abf5a	0.30224115
29	0x3e81e2d3	0.25368366
30	0xbea3c243	-0.31984147
31	0x3e065032	0.1311653
32	0xbe808604	-0.25102246
33	0x3e8544ca	0.26029044
34	0xbe640dce	-0.22270891
35	0x3ec02ced	0.37534276
36	0xbef42950	-0.4768777
37	0x3ec6c3f0	0.38821363
38	0x3e82a4d6	0.25516385
39	0xbefdf50f	-0.49601027
40	0x3e8b8176	0.27247208
41	0x3e880506	0.26566333
42	0x3d8f4066	0.06994705
43	0xbee8e5de	-0.45487875
44	0xbdf9e000	-0.12200928
45	0xbd0d3036	-0.034469806
46	0xbef148b9	-0.47125795
47	0x3e8ec339	0.27883318
48	0x3eb06c86	0.34457797
49	0xbe478e09	-0.19487776
50	0xbed6583c	-0.41864192
51	0xbe912f41	-0.28356364
52	0xbe28de99	-0.16491164
53	0x3de4bb06	0.111684844
54	0x3eb02014	0.34399474
55	0x3e8ef1dd	0.27918902
56	0x3ea17398	0.31533504
57	0x3e114f5c	0.1419043
58	0xbe87aa5f	-0.2649717
59	0x3e1919e8	0.14951289
60	0x3ef3bd9f	0.47605607
61	0xbe9b77d5	-0.30364862
62	0x3ee332ac	0.44374597
63	0xbe45587a	-0.19272032
64	0x3ee2f965	0.44330898
65	0x3edfa3c7	0.4367964
66	0xbdbd6b38	-0.09248966
67	0xbebe60e0	-0.37183285
68	0x3e2c144c	0.16804618
69	0xbd5c67f0	-0.05381006
70	0xbd12ad5b	-0.035809856
71	0xbee0c25c	-0.43898284
72	0xbee6e69a	-0.4509781
73	0xbd88979c	-0.06669542
74	0x3e1b88b0	0.15188861
75	0x3cbd33a5	0.023095915
76	0xbeb903b7	-0.36135647
77	0xbebdfb57	-0.3710582
78	0x3d2e86d1	0.04260904
79	0x3eafbca1	0.343236
80	0x3e6dab9c	0.23209995
81	0x3d63e160	0.055634856
82	0xbd5671d1	-0.052354638
83	0xbe78b912	-0.24289349
84	0x3e7a57c3	0.24447541
85	0x3e34f029	0.17669739
86	0x3e1c335b	0.15253966
87	0x3dbed1a4	0.093173295
88	0x3e858905	0.260811
89	0x3be9e6f0	0.0071381256
90	0x3edc063c	0.42973506
91	0x3e820300	0.25392914
92	0x3edea986	0.4348871
93	0x3e44c02c	0.19213933
94	0xbe69b293	-0.22822027
95	0x3e9ad5c2	0.3024121
96	0x3ed0172c	0.4064268
97	0x3d6e04df	0.058110114
98	0x3db0b359	0.08627958
99	0x3d6a4069	0.057190333
100	0x3efe0982	0.4961663
101	0xbca7e0e6	-0.020492982
102	0x3e205ee1	0.15661193
103	0x3eb8df51	0.36107877
104	0xbd1c41e6	-0.038148783
105	0xbeee3f81	-0.46532825
106	0x3e2ebce8	0.1706425
107	0x3ea2fe25	0.31834522
108	0xbe42a10a	-0.19006744
109	0x3ea9cdc4	0.331648
110	0x3eca3fec	0.39501894
111	0xbeb090e4	-0.34485543
112	0x3df12aa1	0.11775709
113	0xbee93b44	-0.4555303
114	0x3ea05468	0.31314397
115	0x3eb89753	0.3605295
116	0xbebca591	-0.36845067
117	0x3e33ec28	0.17570555
118	0xbd39cc60	-0.045360923
119	0xbdba3065	-0.09091262
120	0x3e10f2fb	0.1415519
121	0xbb0d00fd	-0.0021515482
122	0x3e8159cc	0.25263822
123	0x3dc743d3	0.09729733
124	0x3e30b581	0.17256738
125	0xbe8fa594	-0.28056014
126	0xbe4c8437	-0.19972311
127	0x3e9d4233	0.30714568
128	0xbe1e9cac	-0.15489453
129	0x3dfcd418	0.12345141
130	0xbe003191	-0.12518908
131	0x3d5ca2d0	0.053866208
132	0xbe156100	-0.14587784
133	0x3e92ad3c	0.28647792
134	0xbca669e0	-0.020314157
135	0xbe5aaa0b	-0.21353929
136	0x3df00828	0.11720306
137	0xbe47694b	-0.1947376
138	0xbe369a9a	-0.17832413
139	0x3ee3f341	0.44521526
140	0xbdbd1e75	-0.09234325
141	0x3dacd746	0.08439498
142	0xbeb89f26	-0.3605892
143	0x3e81f07c	0.25378788
144	0xbc96114c	-0.018318795
145	0xbddc96b3	-0.10770931
146	0x3e096607	0.13417827
147	0xbe8b6ffc	-0.27233875
148	0x3e58eab2	0.21183279
149	0xbd851ef0	-0.065000415
150	0x3e6e6386	0.23280153
151	0xbe6fa640	-0.23403263
152	0xbeed703b	-0.46374688
153	0x3dc50f68	0.09622079
154	0x3ee21381	0.44155505
155	0xbe6bbc0c	-0.23020953
156	0x3ebdb5ba	0.3705271
157	0xbee1f3f8	-0.44131446
158	0xbeba330c	-0.3636707
159	0xbe6fe98c	-0.23428935
160	0xbed737bb	-0.42034706
161	0x3e9b9b62	0.30391985
162	0xbeefd5eb	-0.46842894
163	0x3e3fcf1d	0.18731351
164	0x3e0743be	0.13209435
165	0x3dd71ae1	0.105031736
166	0x3ec4c5c8	0.38432145
167	0x3ecd0ffe	0.40051264
168	0xbecac92a	-0.396066
169	0xbe41b8a7	-0.18918096
170	0xbe258ee6	-0.16167793
171	0xbeb06caa	-0.34457904
172	0x3e7a9a38	0.24472892
173	0xbeea5a71	-0.45772126
174	0x3ea064aa	0.313268
175	0x3eda603e	0.42651552
176	0xbd0891c1	-0.033342127
177	0x3ee9857e	0.4560966
178	0xbef5070e	-0.47856945
179	0x3eea787b	0.45795044
180	0x3e94d6e8	0.2907021
181	0x3dfc8368	0.12329751
182	0xbe903df2	-0.2817226
183	0xbd886633	-0.06660118
184	0xbeb61d06	-0.35569018
185	0xbdc167e4	-0.09443644
186	0xbc8e629f	-0.01738101
187	0x3f04b007	0.51831096
188	0xbe42d8ba	-0.19027987
189	0x3e881f96	0.26586598
190	0xbd83b840	-0.06431627
191	0x3d9bf600	0.0761528
192	0x3f00c500	0.503006
193	0x3ec4ed32	0.38462216
194	0x3ee584ac	0.44827783
195	0x3e07f848	0.13278306
196	0x3d16134c	0.036639497
197	0xbefce66c	-0.49394548
198	0x3e501698	0.20321119
199	0xbe3db62a	-0.18526521
200	0xbd82f811	-0.06394971
201	0x39f1a46c	0.00046089606
202	0x3e9ba68e	0.3040051
203	0xbe700e27	-0.23442899
204	0x3eabd744	0.33562672
205	0x3efed0a1	0.49768546
206	0x3eb681ba	0.3564585
207	0xbedf16a5	-0.43571964
208	0x3cbde46a	0.023180205
209	0xbea17753	-0.3153635
210	0x3e95eb14	0.29280913
211	0x3dedcc3a	0.11611219
212	0xbdf96b71	-0.12178696
213	0xbea05242	-0.31312758
214	0xbe6a6fc4	-0.22894198
215	0xbed8e44a	-0.4236167
216	0x3e5c7268	0.21528018
217	0x3eabc495	0.33548418
218	0xbd234355	-0.039859135
219	0x3ea8112a	0.32825595
220	0x3e4bce84	0.19902998
221	0x39688112	0.00022173327
222	0x3dffb721	0.12486101
223	0x3e837c5e	0.25680822
224	0xbca7bf80	-0.020477057
225	0x3e4267f6	0.1898497
226	0x3e8cf1ec	0.27528322
227	0x3e304c03	0.17216496
228	0x3e1c1731	0.15243222
229	0xbe916a8e	-0.28401607
230	0xbeb394f2	-0.35074574
231	0x3e3abc10	0.18235803
232	0x3e6fc428	0.23414671
233	0xbec61eba	-0.38695318
234	0x3d48e168	0.04904309
235	0x3eb80a2a	0.35945255
236	0x3ee9595c	0.45575988
237	0xbe8aa184	-0.27076352
238	0xbda77635	-0.08176843
239	0xbc53a04f	-0.0129166385
240	0x3ec28cee	0.37998146
241	0x3e74be65	0.23900755
242	0xbecb8f78	-0.39757895
243	0xbc7ac4c9	-0.015305706
244	0xbd8295de	-0.06376241
245	0x3cab1b30	0.020886987
246	0xbeae4e7a	-0.34044248
247	0x3ea39742	0.31951338
248	0x3e9445a3	0.2895938
249	0x3eca79d2	0.39546067
250	0xbece109a	-0.4024704
251	0x3dfa5ca0	0.12224698
252	0x3ed84d90	0.42246675
253	0x3ebc164a	0.36735755
254	0x3a91b6c8	0.0011117095
255	0x3d027a45	0.031854887

linear2.weight f4 [2, 256]
0	0x3d07c782	0.03314925
1	0xbcd143e0	-0.02554506
2	0x3c4fcaf8	0.012682669
3	0xbd44dec8	-0.048064023
4	0xbd80cc2c	-0.06288943
5	0x3d05abcf	0.032634553
6	0x3cf7710c	0.030205272
7	0xbd990d1a	-0.07473202
8	0xbd845e4d	-0.06463299
9	0x3d4b97d2	0.049705334
10	0x3c32b319	0.010906958
11	0xbc3db566	-0.011578893
12	0xbdbdf8cd	-0.092759706
13	0xbd0469f6	-0.032327615
14	0x3d6b92a5	0.057512898
15	0x3c6edfe7	0.01457975
16	0xbda9f3dc	-0.082984656
17	0x3c9eda7c	0.01939129
18	0xbd4c66f0	-0.049902856
19	0xbd69fcbd	-0.057125796
20	0xbd141323	-0.036151063
21	0xbcc14e2a	-0.023596842
22	0xbd7461a7	-0.05966344
23	0xbdbd453d	-0.09241722
24	0x3d8c7eff	0.0686016
25	0xbd3aac2b	-0.04557435
26	0xbadb2344	-0.0016718884
27	0xbb80d6f3	-0.003931874
28	0xbda5bbd1	-0.08092464
29	0x3b6a99ed	0.0035797313
30	0xbcd03f7e	-0.0254209
31	0xbc96c8ca	-0.01840629
32	0xbc1db9c8	-0.009626813
33	0xbdc47021	-0.095916994
34	0x3bc56cae	0.0060249185
35	0x3ca84d13	0.020544564
36	0xbbbc3860	-0.005744025
37	0xbb48fb74	-0.0030667456
38	0x3bc2b5c0	0.0059420764
39	0x3cb5cd25	0.022192547
40	0xbd647b39	-0.055781577
41	0x3d7dd892	0.061974116
42	0x3d123615	0.035696108
43	0x3b6b7853	0.0035929873
44	0x3cecf03c	0.028923146
45	0xbd4a0433	-0.04932041
46	0x3ccbbf94	0.024871625
47	0x3ba30c5a	0.0049758377
48	0x3d0ee774	0.0348887
49	0x3d887dd1	0.066646226
50	0xbd90239b	-0.07038041
51	0x3cb06646	0.021533143
52	0x3a6c5a92	0.00090161816
53	0x3ce3a349	0.027787821
54	0x3d3b7568	0.045766264
55	0xbd015416	-0.03157433
56	0x3ce4c5e8	0.0279264
57	0x3c0102c0	0.007874191
58	0x3d0422d0	0.032259762
59	0xbcabc5d0	-0.020968348
60	0x3d55f7ee	0.052238397
61	0xbc4d09ff	-0.01251459
62	0xbcb3cd84	-0.021948583
63	0xbd20bdf0	-0.03924364
64	0xbce6b78f	-0.0281637
65	0xbd981073	-0.074250124
66	0xbd795c18	-0.060878843
67	0x3a8ce640	0.0010749772
68	0xbd93c786	-0.072157905
69	0x3d2df450	0.042469323
70	0xbd509bce	-0.050929837
71	0xbdadd819	-0.08488483
72	0xbc9e9ce0	-0.019361913
73	0x3cff071e	0.031131323
74	0x3cd39058	0.025825664
75	0x3c6639e0	0.014051884
76	0xbd3ce6a2	-0.046118386
77	0xbc5f01bc	-0.013611253
78	0xbc622b09	-0.013804206
79	0xbd1bb5a9	-0.03801504
80	0x3d697e74	0.05700536
81	0x3d73fce0	0.059567332
82	0xbd06cdd9	-0.032911155
83	0x3d443482	0.047901638
84	0xbd5f754a	-0.054555215
85	0x3c920d1b	0.017828515
86	0xbd2e360f	-0.042532023
87	0x3d7144b9	0.05890343
88	0x3d02cd92	0.03193433
89	0x3c1d6b35	0.00960808
90	0x3d9ab58a	0.07554157
91	0x3d301270	0.042986333
92	0x3d0d2180	0.034455776
93	0x3c3ce638	0.011529498
94	0x3c46ee22	0.012141736
95	0xbd97cbf3	-0.07411947
96	0x3d6d163a	0.057882525
97	0xbd360d51	-0.044446293
98	0xbd2ad844	-0.041710153
99	0xbd1143a3	-0.035464894
100	0xbbdfac80	-0.0068259835
101	0xbcdfac31	-0.027303787
102	0xbd144785	-0.03620102
103	0xbd14a710	-0.036292136
104	0x3ce04083	0.027374512
105	0x3cf9da88	0.030499712
106	0xbd53242f	-0.05154818
107	0xbd7ade40	-0.06124711
108	0xbdbaec1d	-0.09127066
109	0x3c4408b8	0.011964969
110	0xbdab9142	-0.08377315
111	0xbc8d2cd4	-0.01723329
112	0x3d1d155e	0.038350455
113	0xbceb8161	-0.028748216
114	0xbdb4208f	-0.087952726
115	0x3d08ec55	0.03342851
116	0x3cbd27b2	0.023090217
117	0xbd27da3c	-0.04097961
118	0xbc0f45a8	-0.008744635
119	0xbd106495	-0.035252172
120	0xbd90e6ec	-0.07075295
121	0x3d37c0cf	0.04486161
122	0x3cd6d8f8	0.026226506
123	0xbcfbddc9	-0.030745404
124	0xbdb9cca4	-0.09072235
125	0xbd14511a	-0.036210157
126	0x3c86ae3f	0.016440509
127	0x3db0841e	0.08618949
128	0x3cc4e084	0.024032839
129	0x3d4a2e76	0.049360715
130	0xbd8b2afd	-0.06795309
131	0x3d148734	0.036261752
132	0xbc37ff70	-0.011230335
133	0xbc86f526	-0.016474318
134	0x3c816a28	0.01579769
135	0xbd276379	-0.04086635
136	0x3d2605a4	0.040532723
137	0xbd4420b4	-0.04788275
138	0xbd662e87	-0.056196716
139	0xbd988efd	-0.07449148
140	0x3d5971a3	0.053086888
141	0x3c0a2b4f	0.008433177
142	0x3cc0a1ec	0.02351471
143	0x3ca05c38	0.019575223
144	0x3cbe1cd6	0.02320711
145	0xbc73bc0c	-0.014876377
146	0x3c7f57dd	0.015584913
147	0x3c98b5b0	0.018641323
148	0xba5ce41a	-0.0008426324
149	0x3d2ec02c	0.042663738
150	0xbc531a3e	-0.012884675
151	0x3d256c26	0.04038634
152	0x3c334044	0.010940615
153	0xbd21c5f9	-0.039495442
154	0x3cbae3de	0.022813734
155	0x3cff7e1c	0.031188063
156	0x3d7ea73a	0.0621712
157	0x3cf7bdd4	0.030241884
158	0x3cc41f21	0.023940625
159	0xbcbb003c	-0.02282726
160	0xbc600849	-0.01367385
161	0xbb368b16	-0.0027853898
162	0xbd77810a	-0.060425796
163	0x3d0b1110	0.03395182
164	0xbda74864	-0.08168104
165	0xbd448730	-0.047980487
166	0xbcd8314f	-0.0263907
167	0xbcd0f3bc	-0.025506847
168	0x3d18e93c	0.037331805
169	0x3c99520d	0.018715883
170	0xbc3d46c6	-0.011552518
171	0xbc34c824	-0.011034045
172	0x3bf52a30	0.007481836
173	0xbcc6dc6e	-0.024275031
174	0xbc8afd10	-0.016966373
175	0x3d27dcae	0.04098194
176	0x3a8ee178	0.0010900935
177	0xbd5162d8	-0.051119655
178	0x3d751fc6	0.059844755
179	0xbd2ddd27	-0.042447235
180	0x3d5f884e	0.05457335
181	0x3caaa8f4	0.020832516
182	0x3d5407fe	0.051765434
183	0x3cbfe29a	0.023423482
184	0x3b7222a0	0.0036946908
185	0xbd30fe7e	-0.043211453
186	0x3d734405	0.05939104
187	0xbd5b2b4b	-0.053508084
188	0xbc9a6fea	-0.018852193
189	0x3d15949f	0.03651869
190	0xbcc227f4	-0.023700692
191	0x3d380908	0.044930488
192	0xbd8be02f	-0.06829869
193	0xbc83e220	-0.016099036
194	0xbd421e30	-0.04739207
195	0xbc39f880	-0.011350751
196	0x3c3426e8	0.010995604
197	0xbd2beeb8	-0.041975707
198	0x3c10c60c	0.008836281
199	0x3cd0f2eb	0.025506457
200	0xbc901e6d	-0.017592633
201	0x3c79e483	0.015252235
202	0xbca527d8	-0.0201606
203	0x3c6eab3f	0.014567195
204	0xbd9ca2cd	-0.07648239
205	0x3d96b027	0.07357817
206	0x3b4fde60	0.003171824
207	0xbac6bfe2	-0.0015163387
208	0xbbc9551f	-0.0061441804
209	0xbda42ba3	-0.080161355
210	0xbd52720e	-0.051378302
211	0xbdab48bb	-0.083634816
212	0xbc8c9959	-0.017162966
213	0xbd0113a8	-0.031512886
214	0xbdba226d	-0.090885974
215	0xbc583bf8	-0.013197891
216	0xbcf968ac	-0.03044542
217	0x3c9c0460	0.019045055
218	0xbb57a088	-0.003290208
219	0x3c93e04c	0.018051289
220	0xbd4c3474	-0.04985471
221	0x3d50fa36	0.05101987
222	0xbc94d788	-0.01816918
223	0x3b129bc6	0.002237068
224	0x3cbc0028	0.022949293
225	0x3d4cfe62	0.050047286
226	0xbcbc7dc4	-0.023009188
227	0xbda0197c	-0.07817361
228	0x3d3725b6	0.0447137
229	0xbd82756e	-0.06370054
230	0x3d336fcc	0.04380779
231	0xbaacac40	-0.0013173893
232	0xbc80baa4	-0.015713997
233	0xbd046b48	-0.032328874
234	0x3d40279a	0.046912767
235	0x3dbaccf6	0.091211244
236	0x3d074f62	0.03303469
237	0xbaefcd40	-0.0018295422
238	0x3d9d3fd7	0.07678192
239	0xbcf9039b	-0.030397227
240	0xbb532898	-0.003222024
241	0x3c436b86	0.011927491
242	0x3d0f8b1c	0.035044774
243	0xbd2dc227	-0.042421486
244	0xbdbdc94c	-0.0926691
245	0xbd90547e	-0.070473656
246	0xbcf522e5	-0.029923866
247	0x3b874b70	0.004128866
248	0x3d470ff8	0.048599213
249	0x3ca5cf20	0.020240366
250	0x3d7d60ff	0.06186008
251	0x3cbb43d8	0.022859499
252	0xbd555480	-0.05208254
253	0x3bbc4c20	0.0057463795
254	0xbdad39aa	-0.08458264
255	0x3c861d67	0.016371442

linear2.bias f4 [2]
0	0x3c608b49	0.013705083
1	0xbc4ec95c	-0.01262125
