model/model.pth (torch, 8595 bytes, 4 tensors)

linear1.weight f4 [256, 4]
00000000: 7ad3 0c3e 3a78 ebbe 59e0 f4be d3fd ee3e
00000010: 92ef e6be 57fa 0fbe 180d 20be 3165 28be
00000020: 9d7a c13d 024b 943d 6c34 88be aeb5 f3be
00000030: 0a45 11bd 0267 dbbe 7aba df3d 5121 fcbd
00000040: 3ad1 45be aefb 78be 9018 143e 0fed 49be
00000050: 022c fabe 8ac6 ecbe 94a2 b7be 8ba7 adbe
00000060: d22c e5bc 84fd 82be da3a 04bf 2c0a 913e
00000070: eef5 d93e 5801 853e e00e dd3e 4085 b9bd
00000080: b803 ee3e 58dd 223e 845d d73e 3e9b ab3e
00000090: bd46 9dbe 95f3 a73e 2628 f2be 790a 02be
000000a0: 869d e13e d0c5 cc3d 0cbf c33e 9aa7 c43e
000000b0: bacf af3e 100a 993e 281f 88be 7688 b83e
000000c0: e02a 053d 506e fa3d a0f6 823e 0c43 2d3e
000000d0: a694 d03e b0b8 4abd 00a4 9c3e f4b5 38be
000000e0: 10fe 5d3e 76a9 f6be 43f1 86be b4e7 c4be
000000f0: fa8c 8c3e aa9d d93e d41c e13e 4ce6 8e3e
00000100: ed55 29be 850e b9be cfde 35be 0da7 c9be
00000110: f891 b9bd 1cb2 423e ccfe 7d3e 80e4 743e
00000120: 3fe9 a2be 2255 a9be afc4 3ebe 73fe 173e
00000130: 5153 28bd 31a6 843e b7ce b7be a9a9 f6bd
00000140: 0095 c23e b0cf fe3e 7c58 e63e 8c1a a8be
00000150: c040 64bb bf47 f73c 37e1 24be 4f4f 4e3d
00000160: 5423 653e 3881 7a3e a0c1 91bd 94f5 a5be
00000170: 4098 9d3d c8a0 403e 5ce4 713e 7e25 fe3e
00000180: bcf6 cb3e b0df 51be 1c56 653e 7e01 f5be
00000190: bcf7 133e 68fd e13e 8051 2abc a455 ed3e
000001a0: 44f5 43be 8e67 14bc 0eb9 f2bd 6dbc 4abe
000001b0: 7ed3 923e bc78 c73e a439 c93e f873 d83d
000001c0: e497 163e 5b39 46bd d4eb 1ebe 9a08 363d
000001d0: 8f25 d03d 21ee ddbe c27a 943e bdfe bdbe
000001e0: 7407 5fbe 4ea1 39be 2f8d 02bd 1ebb 48be
000001f0: fe59 aa3e cce4 1fbe dcf3 fe3e 40be 563e
00000200: c69b d13e 34b2 94be 2a7f c23e b5f6 6fbd
00000210: ae4c 62be 7449 343e ccfd a1be 09d1 04be
00000220: 2027 5f3e fd8a 9f3d e478 adbe 029e 3e3e
00000230: 2408 cebd a3ce a23d 5ad1 c5be cf00 a73e
00000240: 88e3 583e 8c66 3b3e 7ccb c93e d49a ecbe
00000250: 9a52 45be ffc6 76be cdb5 9f3e c2ce ae3d
00000260: 25f3 6a3e 3224 e8be bbd8 f4be 86a6 9bbe
00000270: 2510 eabe 2a1b 9e3e 1043 753d 56e6 bfbc
00000280: 6ce9 213e 185d f03d c27c 873e 98eb f93d
00000290: c62b c63e 1c10 0abe 000a 8bba 16db 97be
000002a0: ac00 f63e 60e5 ba3e e47d 8f3e 8479 c8be
000002b0: ae65 3ebd 3847 9f3e c0cc 22be eccb eb3e
000002c0: 6a43 a2be a98b 4abe e8e1 0ebe cb85 7b3e
000002d0: e6ba 8d3e e0a8 693d 643b 0f3e 0026 e6bd
000002e0: 1b63 de3d 7221 e1be d8c1 4d3e a858 8d3d
000002f0: 444f 31be 57a1 233d 85be 48be 5c8c 61bd
00000300: 5828 7bbe 69f8 a8be ef3a a43d 74c6 913e
00000310: ac3f 693e 8ce9 793e 40b3 9dbd 44e9 b13e
00000320: aebc adbe 294c afbd b388 bebe 5b65 733d
00000330: bd69 b8be 8144 89be 04f8 bebe 04ef 78be
00000340: 0053 c63c 4c40 963e f0fd f13d 9480 b9be
00000350: 783d 61be 30e1 343e b6d2 fc3e 60af 393e
00000360: c431 de3e 3b8a e4be f050 ae3d 9d13 0abf
00000370: 506c 6abd 080b 8d3d 0c2a fc3e 6499 713e
00000380: 8595 6d3e ac95 02bf 0472 d2be 6ae3 ccbe
00000390: c665 e0bd 00ea e2bc 4fcf 1f3e 1988 bfbd
000003a0: 500c f63d c02d e03d 2465 da3e 1c66 95be
000003b0: 1b71 943e c8ad b9be ac1a c0be 8087 86be
000003c0: 4175 83be 7267 053e 0d4f ea3d f2e0 e4bd
000003d0: acca bd3e 48e2 ed3d 00d8 e039 4eb8 d73e
000003e0: f2e7 833e 1875 8ebd 381b 60be 0842 883e
000003f0: ea8c 943d 9974 a4be ae3d bf3d d91f 87be
0.13752547 -0.45990163 -0.47827414 0.46678028 -0.45104653 -0.14060341 -0.15629995 -0.16444851
0.09447215 0.07240869 -0.26602495 -0.47599548 -0.03546623 -0.42852026 0.109242395 -0.12311042
-0.19318095 -0.24314758 0.14462495 -0.19719337 -0.488617 -0.46245223 -0.35866225 -0.33916888
-0.027975474 -0.25584042 -0.516523 0.28328073 0.42570442 0.25977588 0.4317541 -0.090586185
0.46487212 0.15904748 0.42063534 0.33516878 -0.30718032 0.32803026 -0.47296256 -0.12699308
0.44065493 0.09998667 0.38231695 0.3840912 0.3433817 0.2989049 -0.2658627 0.3604161
0.032511592 0.12228072 0.25578785 0.16920108 0.4073841 -0.049492538 0.30593872 -0.1803816
0.21678948 -0.48176163 -0.26355943 -0.38458025 0.27451307 0.425031 0.43967307 0.27910078
-0.16536684 -0.3614389 -0.17760776 -0.39385262 -0.090610445 0.19013256 0.24804229 0.23915291
-0.31818578 -0.33072764 -0.18629716 0.14843158 -0.04109508 0.25908044 -0.35899898 -0.12044079
0.38004303 0.49767828 0.44989383 -0.32832754 -0.0034828633 0.030185578 -0.16101538 0.050368603
0.22376758 0.24463356 -0.07117009 -0.32413924 0.07695055 0.18811333 0.23622268 0.4963798
0.3983668 -0.20495486 0.2239613 -0.478527 0.14449972 0.44138646 -0.010395408 0.463544
-0.1913653 -0.0090578925 -0.11851703 -0.19798441 0.2867698 0.389593 0.3930179 0.10568994
0.14706379 -0.048394542 -0.15519649 0.044441797 0.10163414 -0.4334574 0.28999907 -0.37108412
-0.21780187 -0.18127939 -0.031872924 -0.1960263 0.33271784 -0.15614623 0.49795425 0.20971012
0.40939158 -0.29042208 0.37987643 -0.058584888 -0.22099563 0.17606145 -0.31638944 -0.12970366
0.21792269 0.07790182 -0.33881295 0.18614963 -0.100601465 0.07949569 -0.38636285 0.32617804
0.21180546 0.18300837 0.3941306 -0.46211874 -0.19269791 -0.24099348 0.3119339 0.0853553
0.22944315 -0.45340115 -0.47821602 -0.30400485 -0.45715442 0.308801 0.05987841 -0.023425262
0.158117 0.11736506 0.2646237 0.12203139 0.3870527 -0.13482708 -0.0010607839 -0.29659337
0.48047388 0.36503124 0.28025734 -0.3915521 -0.046483688 0.31109023 -0.15898418 0.46054018
-0.31692058 -0.19779839 -0.13953364 0.24562757 0.27681655 0.057045817 0.139875 -0.11237717
0.108587466 -0.4397083 0.20093477 0.069016755 -0.17315394 0.039948788 -0.19603927 -0.055065498
-0.24527109 -0.33002022 0.08019053 0.2847172 0.22778195 0.24405497 -0.07700205 0.3474828
-0.33933014 -0.08559448 -0.37213668 0.059422832 -0.36018172 -0.26810077 -0.37298596 -0.24309927
0.0242095 0.2934593 0.11816013 -0.3623091 -0.21996105 0.17664027 0.4937951 0.18133307
0.43397343 -0.4463671 0.08511531 -0.5393618 -0.0572322 0.0688687 0.4925083 0.2359367
0.23201568 -0.5100963 -0.41102612 -0.40017253 -0.10956912 -0.02769947 0.15606426 -0.093521304
0.12014067 0.10946226 0.4265529 -0.29179466 0.28992543 -0.36265397 -0.3752035 -0.26275253
-0.25675395 0.13027743 0.11440859 -0.111757174 0.3706869 0.11615425 0.00042885542 0.421328
0.25762898 -0.069559276 -0.21885383 0.26612878 0.0725344 -0.32120207 0.09337936 -0.26391485

linear1.bias f4 [256]
00000000: fcec acbe d99d b5be dce9 f03e 61d3 eabe
00000010: 008d 3f3c 4adc ea3e bd6c 573d 40ce e1bc
00000020: 4e3c f53e aac5 e7be 84ab 6b3e b201 e13e
00000030: 167a c63e 88cf c9be 5035 b9bc 7c35 90be
00000040: 53a0 b1be 5401 b8be 3a19 ac3c 38bf c33e
00000050: a6ca 883e 9626 ffbe 7a18 c73e bc5a 8b3e
00000060: d677 b0be 38b8 e13e 2713 d5be e026 00be
00000070: a6b1 a83e 82ad d43e 25d8 033d be10 a43e
00000080: 20e2 bd3c a6bf 27bd ab3a 21bc e1fa 70be
00000090: 8241 e7be 30b6 94be b210 633e f7d6 edbe
000000a0: 7ac0 b4be 0279 97be 00be b5ba 4814 febe
000000b0: 5c92 363e 8478 f33e b63f ab3e e7fa f5bd
000000c0: 9b62 adbe 1082 efbd 69ed 7e3e ec3a 1abe
000000d0: dca3 663e 4e83 cdbe 945d 203e 8c7e 64be
000000e0: c8ea 013f 6aa1 75bc a0e7 20bd 92a9 543e
000000f0: a233 05bf f414 d6be 007a 55bc 5ac5 cf3e
00000100: fc2b 443e b01a 613e f8f3 a8be 2ad9 e7be
00000110: 3a75 d03d c6cf fdbe b9ab 6fbe e04e 283e
00000120: 5005 43be ed71 3ebd 6267 8d3d c5a9 15bd
00000130: 4c88 393e d290 7cbe fc21 053e 7f6a 6ebe
00000140: 88e4 ebbd 288b d53d 5eb8 cd3e 3c92 033e
00000150: 22e8 a5be dca1 363e ece7 1ebe 2553 013e
00000160: ab08 533e 3476 b3be 00b7 9b3e 5ebc d73e
00000170: 1df1 b2be 98ce 4abe 30b5 cdbd 90c7 cfbe
00000180: 02aa d5be ca5e 7f3e a95f b43e 8f22 5c3d
00000190: e8f5 20be 0094 473b 28ad bebe 56a7 ba3e
000001a0: 00de a0be 8b35 6ebe 00c7 dd3e 1e5c de3e
000001b0: 44b6 d2be 9009 4e3e 90b9 893e 0068 fdbd
000001c0: fe01 893e fa85 a73d 66bb c6be 1ee6 0bbe
000001d0: 08b3 3d3e 4445 d03e d87b 9c3d c80c e1be
000001e0: aa30 d63e 9c85 5fbe e5b5 ac3e b5c6 0b3e
000001f0: ad81 7d3e 687e 92be 1521 50be 7c52 2bbe
00000200: bbf4 9bbd 4145 863c f0fe 4cbd dc46 ccbe
00000210: c51c 8c3e f10f f23e c962 703e 5c4c 6c3e
00000220: b5a1 cfbe 0d4d de3e e075 bf3d c252 8e3e
00000230: d8ae ddbe b4e2 393e 7ba6 883e 3631 97be
00000240: 46f8 adbe 2007 f93e 0a83 12bd d083 6fbe
00000250: ac03 f3be d449 d1be 64ac 81be cc49 d6be
00000260: dda7 2abe d8d3 903e 6ced 64be b9c6 e8bd
00000270: 9cad 953e ec86 87bd b387 d5bd ba5e 1e3d
00000280: f119 363c bbf1 d9be c444 f03e f0bb 6e3e
00000290: 962b ffbe 5ae4 71be 69a9 673e 361a a23e
000002a0: 4c0a 433e f843 533e e7df b0be ff49 65bc
000002b0: a325 25bd ec51 31be 14ef 04be b2e6 46be
000002c0: 7304 8dbe 2050 e5bc f769 b8be f8ab d23e
000002d0: 4841 79be 9290 debc 2a7e 0a3e 609d 5cbe
000002e0: 6003 4bbe 626b cb3e 8e2f c5bd 26bd 26bd
000002f0: 9066 b43d 613e 90bc a2ed a6be acbc a4be
00000300: 83ae 6abe 3cd1 c93e 2f2e c3be a4ee 003e
00000310: 8202 573e 9510 a83d 0851 553e 6e3b d43d
00000320: 2c50 a2be 9896 89be 8f57 84be f793 d0be
00000330: 101f 943e 8c0f 08be 142c e8be 9b99 e23e
00000340: 680c 673e 80cb 71be 93e9 f23d 705a 603e
00000350: df50 7dbe 2eb4 f9be f075 38bd 56b6 073f
00000360: 94c4 2b3e d001 4cbd 3b30 0ebe 73bc 01bf
00000370: ffe6 13bd 0096 20bd f99e b03d b487 6a3e
00000380: f864 e23e 5ed6 a8be c225 d1be 34b0 a1be
00000390: f703 193e 919e f13c eb02 c03c 82af 833d
000003a0: 4aac a5bd e145 8e3e 3b38 3f3e 8040 bf3c
000003b0: 1ae9 a8be dcd4 4c3e 9207 eb3e 7474 94be
000003c0: 60e9 97be 6a27 333e d194 c1bd e2aa b73e
000003d0: 583d 993d b8d9 55bd 7eff 433e a446 9bbe
000003e0: 0c10 193e ca1e 2abc 1458 b5be dad9 d53e
000003f0: 6435 fbbe 36d7 aebe 7225 f93d fde0 e23e
-0.33774555 -0.3547199 0.4705342 -0.45864394 0.011691332 0.45871192 0.052593935 -0.027564168
0.4789757 -0.45267993 0.23014647 0.43946606 0.3876502 -0.39416146 -0.02260843 -0.28165805
-0.3469263 -0.35938513 0.021008123 0.38231826 0.26717108 -0.49834126 0.38885862 0.27217662
-0.34466428 0.4408586 -0.41616175 -0.1251483 0.32948035 0.41538626 0.032188553 0.32044023
0.023179114 -0.040954255 -0.009840648 -0.23533203 -0.45167166 -0.29045248 0.22174338 -0.46453068
-0.35303098 -0.2958451 -0.0013865829 -0.49624848 0.17829269 0.47552884 0.33447045 -0.120107464
-0.33864293 -0.11694729 0.24895252 -0.1506154 0.22523445 -0.4013924 0.15660697 -0.22313899
0.5074887 -0.014992097 -0.039283395 0.20767811 -0.5203191 -0.4181286 -0.013029575 0.40580255
0.19157404 0.21982837 -0.32998633 -0.4528287 0.10178609 -0.4957258 -0.2340535 0.16436338
-0.19044995 -0.046495367 0.06904484 -0.036538858 0.181184 -0.2466462 0.13001245 -0.23282813
-0.11518198 0.104269326 0.40179724 0.12848753 -0.32403666 0.17835182 -0.15518159 0.12629373
0.20608775 -0.3505112 0.30413055 0.421359 -0.3494958 -0.19805372 -0.100443244 -0.40581942
-0.41731268 0.24938503 0.35229233 0.053743895 -0.15718806 0.0030453205 -0.37241483 0.36455792
-0.31419373 -0.23262613 0.43315887 0.43429655 -0.41154683 0.20120835 0.26899385 -0.12373352
0.26759332 0.08179851 -0.3881485 -0.13662001 0.18525326 0.40677845 0.07640809 -0.43955064
0.41834003 -0.21828312 0.33732525 0.1365002 0.24756499 -0.28612065 -0.2032512 -0.16730684
-0.07615038 0.016390445 -0.050047815 -0.3989781 0.273657 0.47277787 0.23475184 0.23076004
-0.4055306 0.4341816 0.09348655 0.27797514 -0.43297458 0.18152887 0.26689515 -0.29529732
-0.3397848 0.48638248 -0.0357695 -0.23390126 -0.4746374 -0.4087664 -0.25326836 -0.41853178
-0.16665597 0.28286624 -0.22356194 -0.11366028 0.29234016 -0.06617531 -0.10426273 0.038664557
0.011114583 -0.42567238 0.46927464 0.2331388 -0.4983794 -0.23622265 0.22623219 0.31660622
0.19046897 0.20631397 -0.34545824 -0.013994693 -0.040319096 -0.17316407 -0.12981826 -0.19423941
-0.27542457 -0.027992308 -0.36018345 0.41146827 -0.24341309 -0.027168546 0.1352469 -0.21544409
-0.19825506 0.39730364 -0.09628211 -0.04070773 0.08808625 -0.01760787 -0.32603174 -0.32175195
-0.22918133 0.39417446 -0.38121173 0.12591034 0.2099705 0.08206288 0.20831692 0.10362898
-0.3170179 -0.26872706 -0.25848052 -0.40737888 0.2892995 -0.1328718 -0.4534613 0.44257817
0.22563326 -0.23612785 0.11860957 0.21909499 -0.24737881 -0.4877028 -0.04503435 0.530126
0.16774207 -0.049806416 -0.13885586 -0.50678176 -0.036108967 -0.03920555 0.08624072 0.22903329
0.44217658 -0.3297605 -0.4084912 -0.31579745 0.14942919 0.029494556 0.023438891 0.0642996
-0.08089502 0.27787688 0.18673794 0.023346186 -0.32990342 0.20003074 0.45904213 -0.28995097
-0.29670238 0.17495504 -0.094522126 0.3587256 0.074824035 -0.052209586 0.19140431 -0.30327332
0.14947528 -0.010383317 -0.3541876 0.4176777 -0.4906417 -0.34148568 0.12165345 0.44312277

linear2.weight f4 [2, 256]
00000000: a050 a4bc 98ae a83c 35b7 053d bf27 5cbd
00000010: e426 ac3c c6d3 05bc b2f0 52bd 5408 1ebd
00000020: 68bf 66bc 8933 a0bd f42b fcbc d090 fbbc
00000030: c8c1 3a3c 3078 c3bb 28ff 5dbd 448e 2a3d
00000040: bba9 abbd 5812 e7bc 3eef 50bd 5f10 8bbc
00000050: 46cd 32bd 8a21 a13c e225 03bd e4df a8bc
00000060: 3c7e f2bc 809c a63a 9dfa 6abd b0a4 66bc
00000070: 8884 073d fbca 123d 8f40 0abc 5456 78bd
00000080: aad9 433c 3936 223c 180c 223d 883e edbc
00000090: 00c8 2bbd 0b85 173d fe1c 68bd 6492 643c
000000a0: d8ea 4dbd 6046 493c 289a 0dbc eab8 0c3d
000000b0: 0787 ff3c 38c5 d93c 7b9d b43c a596 513c
000000c0: bab0 fa3c 88e3 0cbc 5d44 9cbd 97cd 573c
000000d0: b0ec 1dbd ec43 4f3d eaff f33a 182a 023c
000000e0: efc2 4fbd 5f42 dfba 4224 733d 3a76 3fbd
000000f0: ea76 8abb f450 143d b042 50bc 0e2e 90bd
00000100: 984a 2dbd 00c6 35b9 d6d2 183d 8578 3abd
00000110: 4379 1f3c 7548 413d ec3f 3339 b814 c33c
00000120: c689 3dbd b515 1d3d 1109 4ebd df25 323d
00000130: 4ce1 e2bc 9c17 98bb 3c4d 003d d2f9 fd3c
00000140: 42e6 6d3d c8b6 20bd 5887 3cbd 40a1 0dbd
00000150: 3e1e 273d 2b2a a7bd f25b 7d3d a798 87bd
00000160: 1045 b6bc 728f abbd bcb8 3fbd 3ee7 2fbc
00000170: f5ae b2bd 4ee5 91bd 73e3 45bd 1016 6cbd
00000180: 4067 10bd 0d8e 8abd b46b 7cbd 6add 473d
00000190: 5c92 f53c 7014 91bc 4670 8fbd 2438 413d
000001a0: b2ba 293d d547 a0bd 6e13 183d d8b9 55bc
000001b0: e8a3 d0bc 1441 b5ba a018 283c 3677 603d
000001c0: 54bf c7bc 501c 87bd 8822 5abd 3ef6 90bd
000001d0: 5c95 d9bc 81d0 df3c c038 8e3a e286 3abd
000001e0: 450d 4ebd f0c9 453c 85b5 1cbd e44b 4dbd
000001f0: 8970 8bbd 8a76 2fbd 179e 25bd 2864 453d
00000200: 3d07 e83c d378 e8bc 9aff 663d 8019 613a
00000210: 9c6e e03c ea63 24bc 59a7 5ebd 105f 483d
00000220: 5ebb ec3b 5313 0f3d 204f fe3b a40a 9c3c
00000230: 21b2 6e3c 0873 533c 4b0a 33bd 94fe 4ebc
00000240: ea0d 2d3d c07b 31bd b11e 75bd 1aa3 59bb
00000250: 0411 7c3d aae3 5bbd d8d1 edbc 30d6 03bc
00000260: fd7e 59bc e75f 1e3d 7e84 2d3c 01b7 40bc
00000270: a043 03bb 6fc1 56bd 23f9 053d 7ae4 77bd
00000280: d82a 38bd 1ced 18bd 3574 a6bd 0c8d 5839
00000290: 7013 6a3c 4cf0 19bc 0194 6bbd 1808 42bd
000002a0: 1c1c 423d 4b1b 24bd e39c d13c 45fd 51bd
000002b0: a687 a3bd 3d9b 0d3d 113b b83c d46b e73a
000002c0: 84b0 5ebb d4cc b8bc c412 e6bc 1cef c339
000002d0: 9c5f c6bc eaed 50bd 1cfc 1abd cdba 7a3c
000002e0: 07a2 eabc 40db c03b d5b1 03bd 3d47 2b3d
000002f0: 8a16 753d 667b 7f3c 888e b6bd d47d ae3c
00000300: 40c1 59bc 9e13 06bd b405 0dbd d2b7 5f3d
00000310: 5330 b8bc 126b 0a3d ee26 00bd e95b ec3c
00000320: f016 4fbd 408b b63c 6474 813c 2ae6 52bd
00000330: 787b 873c bf0b b2bd 4049 7abc f33b cbbc
00000340: 40d9 1f3d 0c34 2a3d 540e 05bc 3818 b03c
00000350: 15b0 d7bc d255 403d 10c6 d03c d367 6fbd
00000360: 3cd5 debc 6061 e4bb 114f 2fbd d573 1f3d
00000370: 4611 86bd 1ca9 61bd ffc2 063c b08f 28bc
00000380: 42cd 7d3d de9b 27bd d2d4 10bd 8ee7 793d
00000390: 6fc2 eabc 98d2 72bd f4fe 373d a439 afbd
000003a0: 753b 26bc 79cc 9dbd bc39 21bd e30b 9bbc
000003b0: 3be9 eb3c 7033 2abd 7caa 083d 873a 95bd
000003c0: aef7 28bd 3131 08bd 86c7 41bc a835 0b3c
000003d0: ec71 bc3c 1a8b b03c 8769 6ebd 68b5 7fbd
000003e0: 55ef a6bd 7e32 68bb d082 72bd 511a d33c
000003f0: e05c e83c 44fe 84bd 5951 b7bb 403e 163c
-0.020057976 0.020591065 0.032645423 -0.053748842 0.021014638 -0.0081681665 -0.051499076 -0.03858216
-0.014083721 -0.078223296 -0.030782677 -0.0307087 0.01139874 -0.005965255 -0.054198414 0.04163958
-0.08381983 -0.02820699 -0.05100941 -0.01697558 -0.043652795 0.019669313 -0.03201855 -0.020614572
-0.029601209 0.0012711436 -0.05736791 -0.0140773505 0.033085376 0.03583811 -0.0084382435 -0.060629204
0.011953751 0.009900623 0.039562315 -0.028960481 -0.04193878 0.036992114 -0.056668274 0.013950918
-0.050272793 0.012284845 -0.008642711 0.034356035 0.031192316 0.026583299 0.022047749 0.012792264
0.030601848 -0.00859917 -0.07630227 0.013171575 -0.0385558 0.050601885 0.0018615697 0.007944606
-0.050723013 -0.001703333 0.05936075 -0.04674361 -0.0042256014 0.036210015 -0.012711212 -0.07040034
-0.042307466 -0.00017335266 0.037310444 -0.045525093 0.009733501 0.04718824 0.00017094583 0.02381359
-0.04627397 0.03835078 -0.050301615 0.043493148 -0.02769532 -0.0046414863 0.031323656 0.031002913
0.05808092 -0.039236814 -0.04602751 -0.034577608 0.040800326 -0.0816234 0.061855264 -0.06620913
-0.022249728 -0.083769694 -0.046807036 -0.010736285 -0.08724777 -0.071238145 -0.048312616 -0.057638228
-0.035254717 -0.06765375 -0.06162615 0.04879514 0.029977016 -0.01770994 -0.07003836 0.04717268
0.041437812 -0.07826201 0.037127905 -0.013044797 -0.025468782 -0.0013828599 0.010259777 0.05480119
-0.024383225 -0.06597197 -0.053255588 -0.07078217 -0.026560478 0.027321102 0.0010850653 -0.04553879
-0.050305624 0.012072071 -0.038259048 -0.050121203 -0.06808574 -0.042837657 -0.04043397 0.04819122
0.028323764 -0.028377926 0.056396104 0.00085868686 0.027396493 -0.010033587 -0.054358814 0.048918784
0.0072244843 0.03493054 0.0077608973 0.019048043 0.014568836 0.012905844 -0.043710988 -0.012633938
0.042249598 -0.043330908 -0.059843723 -0.0033208788 0.061539665 -0.053683914 -0.029030725 -0.008046672
-0.013274905 0.03866568 0.010590671 -0.0117623815 -0.0020029321 -0.052430566 0.0327083 -0.060520627
-0.044962734 -0.0373355 -0.081276335 0.0002065191 0.014286861 -0.00939567 -0.057514194 -0.047371
0.04739009 -0.04006509 0.025587505 -0.051266927 -0.07984857 0.034571875 0.022489103 0.0017656037
-0.0033979723 -0.022558607 -0.02808512 0.0003737145 -0.024215512 -0.051008143 -0.037838086 0.015303326
-0.028641714 0.0058855116 -0.032152016 0.041815985 0.059835948 0.015593385 -0.089139044 0.021300234
-0.013290703 -0.032733552 -0.034429267 0.054618664 -0.02248398 0.033793516 -0.031287126 0.02885242
-0.050558984 0.022283196 0.01580257 -0.051489033 0.016538367 -0.08693647 -0.015276253 -0.02480886
0.039025545 0.041553542 -0.008121092 0.021495923 -0.02632908 0.046956845 0.025485069 -0.058448624
-0.027201287 -0.006969616 -0.042800013 0.038928825 -0.065462634 -0.055092916 0.008225202 -0.010288164
0.061963327 -0.04092013 -0.03535921 0.061011843 -0.028657166 -0.05928287 0.044920877 -0.08555916
-0.010146012 -0.07705016 -0.0393617 -0.018926566 0.028797736 -0.04155296 0.03336571 -0.07286554
-0.04125183 -0.033250038 -0.011827355 0.008496679 0.023003541 0.021550704 -0.058206107 -0.06242886
-0.08151118 -0.0035430486 -0.059206784 0.025769385 0.028364599 -0.0649381 -0.005594414 0.009170115

linear2.bias f4 [2]
00000000: af64 15bd 7ce0 7fbd
-0.036472972 -0.062469944
